…
  atten_energies = torch.stack([F.softmax(atten_energies[i]) for i in xrange(batch_size)])
Namespace(adadelta=False, adam=True, alphabet='0123456789abcdefghijklmnopqrstuvwxyz', batch_size=64, beta1=0.5, crnn='', cuda=True, display_interval=10, experiment=None, imgH=32, imgW=100, keep_ratio=False, lr=0.0002, n_test_disp=10, ngpu=1, nh=256, niter=500, random_sample=True, saveInterval=20, trainroot='/home/thcheng/crnn/IIIT5K', use_attention=True, valInterval=5, valroot='/home/thcheng/crnn/IIIT5K', workers=2)
Random Seed:  2313
Load Dataset: train Finished
Load Dataset: test Finished
AttendCRNN(
  (cnn): Sequential(
    (conv0): Conv2d(1, 64, kernel_size=(3, 3), stride=(1, 1), padding=(1, 1))
    (relu0): LeakyReLU(0.2, inplace)
    (pooling0): MaxPool2d(kernel_size=(2, 2), stride=(2, 2), dilation=(1, 1), ceil_mode=False)
    (conv1): Conv2d(64, 128, kernel_size=(3, 3), stride=(1, 1), padding=(1, 1))
    (relu1): LeakyReLU(0.2, inplace)
    (pooling1): MaxPool2d(kernel_size=(2, 2), stride=(2, 2), dilation=(1, 1), ceil_mode=False)
    (conv2): Conv2d(128, 256, kernel_size=(3, 3), stride=(1, 1), padding=(1, 1))
    (batchnorm2): BatchNorm2d(256, eps=1e-05, momentum=0.1, affine=True)
    (relu2): LeakyReLU(0.2, inplace)
    (conv3): Conv2d(256, 256, kernel_size=(3, 3), stride=(1, 1), padding=(1, 1))
    (relu3): LeakyReLU(0.2, inplace)
    (pooling2): MaxPool2d(kernel_size=(2, 2), stride=(2, 1), padding=(0, 1), dilation=(1, 1), ceil_mode=False)
    (conv4): Conv2d(256, 512, kernel_size=(3, 3), stride=(1, 1), padding=(1, 1))
    (batchnorm4): BatchNorm2d(512, eps=1e-05, momentum=0.1, affine=True)
    (relu4): LeakyReLU(0.2, inplace)
    (conv5): Conv2d(512, 512, kernel_size=(3, 3), stride=(1, 1), padding=(1, 1))
    (relu5): LeakyReLU(0.2, inplace)
    (pooling3): MaxPool2d(kernel_size=(2, 2), stride=(2, 1), padding=(0, 1), dilation=(1, 1), ceil_mode=False)
    (conv6): Conv2d(512, 512, kernel_size=(2, 2), stride=(1, 1))
    (batchnorm6): BatchNorm2d(512, eps=1e-05, momentum=0.1, affine=True)
    (relu6): LeakyReLU(0.2, inplace)
  )
  (attend_layer): AttentionLayer(
    (linear_v): Linear(in_features=512, out_features=512, bias=True)
    (linear_q): Linear(in_features=512, out_features=512, bias=True)
    (linear_k): Linear(in_features=512, out_features=512, bias=True)
    (softmax): Softmax()
  )
  (rnn): Sequential(
    (0): BidirectionalLSTM(
      (rnn): LSTM(512, 256, bidirectional=True)
      (output): Linear(in_features=512, out_features=256, bias=True)
    )
    (1): BidirectionalLSTM(
      (rnn): LSTM(256, 256, bidirectional=True)
      (output): Linear(in_features=512, out_features=37, bias=True)
    )
  )
)
starting to train
[0/500][10/32] Loss: 47.288397
[0/500][20/32] Loss: 18.390568
[0/500][30/32] Loss: 17.629501
[1/500][10/32] Loss: 17.311478
[1/500][20/32] Loss: 17.146595
[1/500][30/32] Loss: 17.753142
[2/500][10/32] Loss: 17.683657
[2/500][20/32] Loss: 17.068679
[2/500][30/32] Loss: 17.096370
[3/500][10/32] Loss: 16.681224
[3/500][20/32] Loss: 17.091751
…
