…
  atten_energies = torch.stack([F.softmax(atten_energies[i]) for i in xrange(batch_size)])
Namespace(adadelta=False, adam=True, alphabet='0123456789abcdefghijklmnopqrstuvwxyz', batch_size=64, beta1=0.5, crnn='', cuda=True, display_interval=10, experiment=None, imgH=32, imgW=100, keep_ratio=False, lr=0.00022, n_test_disp=10, ngpu=1, nh=256, niter=1500, random_sample=True, saveInterval=50, trainroot='/home/thcheng/crnn/IIIT5K', use_attention=True, valInterval=5, valroot='/home/thcheng/crnn/IIIT5K', workers=2)
Random Seed:  2313
Load Dataset: train Finished
Load Dataset: test Finished
AttendCRNN(
  (cnn): Sequential(
    (conv0): Conv2d(1, 64, kernel_size=(3, 3), stride=(1, 1), padding=(1, 1))
    (relu0): LeakyReLU(0.2, inplace)
    (pooling0): MaxPool2d(kernel_size=(2, 2), stride=(2, 2), dilation=(1, 1), ceil_mode=False)
    (conv1): Conv2d(64, 128, kernel_size=(3, 3), stride=(1, 1), padding=(1, 1))
    (relu1): LeakyReLU(0.2, inplace)
    (pooling1): MaxPool2d(kernel_size=(2, 2), stride=(2, 2), dilation=(1, 1), ceil_mode=False)
    (conv2): Conv2d(128, 256, kernel_size=(3, 3), stride=(1, 1), padding=(1, 1))
    (batchnorm2): BatchNorm2d(256, eps=1e-05, momentum=0.1, affine=True)
    (relu2): LeakyReLU(0.2, inplace)
    (conv3): Conv2d(256, 256, kernel_size=(3, 3), stride=(1, 1), padding=(1, 1))
    (relu3): LeakyReLU(0.2, inplace)
    (pooling2): MaxPool2d(kernel_size=(2, 2), stride=(2, 1), padding=(0, 1), dilation=(1, 1), ceil_mode=False)
    (conv4): Conv2d(256, 512, kernel_size=(3, 3), stride=(1, 1), padding=(1, 1))
    (batchnorm4): BatchNorm2d(512, eps=1e-05, momentum=0.1, affine=True)
    (relu4): LeakyReLU(0.2, inplace)
    (conv5): Conv2d(512, 512, kernel_size=(3, 3), stride=(1, 1), padding=(1, 1))
    (relu5): LeakyReLU(0.2, inplace)
    (pooling3): MaxPool2d(kernel_size=(2, 2), stride=(2, 1), padding=(0, 1), dilation=(1, 1), ceil_mode=False)
    (conv6): Conv2d(512, 512, kernel_size=(2, 2), stride=(1, 1))
    (batchnorm6): BatchNorm2d(512, eps=1e-05, momentum=0.1, affine=True)
    (relu6): LeakyReLU(0.2, inplace)
  )
  (attend_layer): AttentionLayer(
    (linear_v): Linear(in_features=256, out_features=256, bias=True)
    (linear_q): Linear(in_features=256, out_features=256, bias=True)
    (linear_k): Linear(in_features=256, out_features=256, bias=True)
    (softmax): Softmax()
  )
  (rnn1): BidirectionalLSTM(
    (rnn): LSTM(512, 256, bidirectional=True)
    (output): Linear(in_features=512, out_features=256, bias=True)
  )
  (rnn2): BidirectionalLSTM(
    (rnn): LSTM(256, 256, bidirectional=True)
    (output): Linear(in_features=512, out_features=37, bias=True)
  )
)
starting to train
[0/1500][10/32] Loss: 56.141127
[0/1500][20/32] Loss: 18.260418
[0/1500][30/32] Loss: 17.902561
[1/1500][10/32] Loss: 17.068965
[1/1500][20/32] Loss: 16.873160
[1/1500][30/32] Loss: 17.342299
[2/1500][10/32] Loss: 16.976555
[2/1500][20/32] Loss: 16.742088
[2/1500][30/32] Loss: 16.950829
[3/1500][10/32] Loss: 17.157060
[3/1500][20/32] Loss: 16.782057
…
Test loss: 18.734069, accuray: 0.402593
mkdir: cannot create directory 'expr': File exists
Namespace(adadelta=False, adam=True, alphabet='0123456789abcdefghijklmnopqrstuvwxyz', batch_size=64, beta1=0.5, crnn='', cuda=True, display_interval=10, experiment=None, imgH=32, imgW=100, keep_ratio=False, lr=0.0002, n_test_disp=10, ngpu=1, nh=256, niter=2000, random_sample=True, saveInterval=50, trainroot='/home/thcheng/crnn/IIIT5K', use_attention=False, valInterval=5, valroot='/home/thcheng/crnn/IIIT5K', workers=2)
Random Seed:  2313
Load Dataset: train Finished
Load Dataset: test Finished
CRNN(
  (cnn): Sequential(
    (conv0): Conv2d(1, 64, kernel_size=(3, 3), stride=(1, 1), padding=(1, 1))
    (relu0): ReLU(inplace)
    (pooling0): MaxPool2d(kernel_size=(2, 2), stride=(2, 2), dilation=(1, 1), ceil_mode=False)
    (conv1): Conv2d(64, 128, kernel_size=(3, 3), stride=(1, 1), padding=(1, 1))
    (relu1): ReLU(inplace)
    (pooling1): MaxPool2d(kernel_size=(2, 2), stride=(2, 2), dilation=(1, 1), ceil_mode=False)
    (conv2): Conv2d(128, 256, kernel_size=(3, 3), stride=(1, 1), padding=(1, 1))
    (batchnorm2): BatchNorm2d(256, eps=1e-05, momentum=0.1, affine=True)
    (relu2): ReLU(inplace)
    (conv3): Conv2d(256, 256, kernel_size=(3, 3), stride=(1, 1), padding=(1, 1))
    (relu3): ReLU(inplace)
    (pooling2): MaxPool2d(kernel_size=(2, 2), stride=(2, 1), padding=(0, 1), dilation=(1, 1), ceil_mode=False)
    (conv4): Conv2d(256, 512, kernel_size=(3, 3), stride=(1, 1), padding=(1, 1))
    (batchnorm4): BatchNorm2d(512, eps=1e-05, momentum=0.1, affine=True)
    (relu4): ReLU(inplace)
    (conv5): Conv2d(512, 512, kernel_size=(3, 3), stride=(1, 1), padding=(1, 1))
    (relu5): ReLU(inplace)
    (pooling3): MaxPool2d(kernel_size=(2, 2), stride=(2, 1), padding=(0, 1), dilation=(1, 1), ceil_mode=False)
    (conv6): Conv2d(512, 512, kernel_size=(2, 2), stride=(1, 1))
    (batchnorm6): BatchNorm2d(512, eps=1e-05, momentum=0.1, affine=True)
    (relu6): ReLU(inplace)
  )
  (rnn): Sequential(
    (0): BidirectionalLSTM(
      (rnn): LSTM(512, 256, bidirectional=True)
      (output): Linear(in_features=512, out_features=256, bias=True)
    )
    (1): BidirectionalLSTM(
      (rnn): LSTM(256, 256, bidirectional=True)
      (output): Linear(in_features=512, out_features=37, bias=True)
    )
  )
)
starting to train
[0/2000][10/32] Loss: 56.143464
[0/2000][20/32] Loss: 18.456905
[0/2000][30/32] Loss: 17.376656
[1/2000][10/32] Loss: 17.685660
[1/2000][20/32] Loss: 17.029323
[1/2000][30/32] Loss: 16.804582
[2/2000][10/32] Loss: 16.432095
[2/2000][20/32] Loss: 17.030698
[2/2000][30/32] Loss: 16.804973
[3/2000][10/32] Loss: 16.500050
[3/2000][20/32] Loss: 16.745887
…
